…
ideo_frames', 'fps', 'mm_vision_select_layer', 'mm_vision_select_feature', 'mm_use_im_start_end', 'mm_use_im_patch_token', 'mm_projector_lr', 'vision_tower_lr', 'vision_resolution', 'interpolate_mode', 's2', 'dynamic_s2', 's2_scales', 's2_max_split_size', 's2_resize_output_to_scale_idx', 'min_tiles', 'max_tiles', 'num_time_tokens', 'time_token_format', 'image_encoder', 'video_encoder', 'model_dtype', 'image_processor'])




모델 프린트
model type <class 'llava.model.language_model.llava_llama.LlavaLlamaModel'>

LlavaLlamaModel(
  (llm): LlamaForCausalLM(
    (model): LlamaModel(
      (embed_tokens): Embedding(32000, 2560, padding_idx=0)
      (layers): ModuleList(
        (0-31): 32 x LlamaDecoderLayer(
          (self_attn): LlamaSdpaAttention(
            (q_proj): Linear(in_features=2560, out_features=2560, bias=False)
            (k_proj): Linear(in_features=2560, out_features=2560, bias=False)
            (v_proj): Linear(in_features=2560, out_features=2560, bias=False)
            (o_proj): Linear(in_features=2560, out_features=2560, bias=False)
            (rotary_emb): LlamaRotaryEmbedding()
          )
          (mlp): LlamaMLP(
            (gate_proj): Linear(in_features=2560, out_features=6912, bias=False)
            (up_proj): Linear(in_features=2560, out_features=6912, bias=False)
            (down_proj): Linear(in_features=6912, out_features=2560, bias=False)
            (act_fn): SiLU()
          )
          (input_layernorm): LlamaRMSNorm((2560,), eps=1e-05)
          (post_attention_layernorm): LlamaRMSNorm((2560,), eps=1e-05)
        )
      )
      (norm): LlamaRMSNorm((2560,), eps=1e-05)
      (rotary_emb): LlamaRotaryEmbedding()
    )
    (lm_head): Linear(in_features=2560, out_features=32000, bias=False)
  )
  
  (vision_tower): SiglipVisionTower(
    (vision_tower): SiglipVisionModel(
      (vision_model): SiglipVisionTransformer(
        (embeddings): SiglipVisionEmbeddings(
          (patch_embedding): Conv2d(3, 1152, kernel_size=(14, 14), stride=(14, 14), padding=valid)
          (position_embedding): Embedding(729, 1152)
        )
        (encoder): SiglipEncoder(
          (layers): ModuleList(
            (0-26): 27 x SiglipEncoderLayer(
              (self_attn): SiglipFlashAttention2(
                (k_proj): Linear(in_features=1152, out_features=1152, bias=True)
                (v_proj): Linear(in_features=1152, out_features=1152, bias=True)
                (q_proj): Linear(in_features=1152, out_features=1152, bias=True)
                (out_proj): Linear(in_features=1152, out_features=1152, bias=True)
              )
              (layer_norm1): LayerNorm((1152,), eps=1e-06, elementwise_affine=True)
              (mlp): SiglipMLP(
                (activation_fn): PytorchGELUTanh()
                (fc1): Linear(in_features=1152, out_features=4304, bias=True)
                (fc2): Linear(in_features=4304, out_features=1152, bias=True)
              )
              (layer_norm2): LayerNorm((1152,), eps=1e-06, elementwise_affine=True)
            )
          )
        )
        (post_layernorm): LayerNorm((1152,), eps=1e-06, elementwise_affine=True)
        (head): SiglipMultiheadAttentionPoolingHead(
          (attention): MultiheadAttention(
            (out_proj): NonDynamicallyQuantizableLinear(in_features=1152, out_features=1152, bias=True)
          )
          (layernorm): LayerNorm((1152,), eps=1e-06, elementwise_affine=True)
          (mlp): SiglipMLP(
            (activation_fn): PytorchGELUTanh()
            (fc1): Linear(in_features=1152, out_features=4304, bias=True)
            (fc2): Linear(in_features=4304, out_features=1152, bias=True)
          )
        )
      )
    )
  )
  
  (mm_projector): MultimodalProjector(
    (layers): Sequential(
      (0): DownSampleBlock()
      (1): LayerNorm((4608,), eps=1e-05, elementwise_affine=True)
      (2): Linear(in_features=4608, out_features=2560, bias=True)
      (3): GELU(approximate='none')
      (4): Linear(in_features=2560, out_features=2560, bias=True)
    )
  )
)













LlavaLlamaConfig {
  "_attn_implementation_autoset": true,
  "_name_or_path": "Efficient-Large-Model/VILA1.5-3b",
  "architectures": [
    "LlavaLlamaModel"
  ],
  "dynamic_s2": null,
  "fps": null,
  "hidden_size": 2560,
  "image_aspect_ratio": "resize",
  "image_encoder": "{\"_target_\": \"llava.model.encoders.BasicImageEncoder\"}",
…
